INFO:root:Encoder objects: ModuleList(
  (0): TransformerEncoder(
    (layers): ModuleList(
      (0): TransformerEncoderLayer(
        (self_attn): MultiheadAttention(
          (out_proj): Linear(in_features=6, out_features=6, bias=True)
        )
        (linear1): Linear(in_features=6, out_features=2048, bias=True)
        (dropout): Dropout(p=0.1, inplace=False)
        (linear2): Linear(in_features=2048, out_features=6, bias=True)
        (norm1): LayerNorm((6,), eps=1e-05, elementwise_affine=True)
        (norm2): LayerNorm((6,), eps=1e-05, elementwise_affine=True)
        (dropout1): Dropout(p=0.1, inplace=False)
        (dropout2): Dropout(p=0.1, inplace=False)
      )
      (1): TransformerEncoderLayer(
        (self_attn): MultiheadAttention(
          (out_proj): Linear(in_features=6, out_features=6, bias=True)
        )
        (linear1): Linear(in_features=6, out_features=2048, bias=True)
        (dropout): Dropout(p=0.1, inplace=False)
        (linear2): Linear(in_features=2048, out_features=6, bias=True)
        (norm1): LayerNorm((6,), eps=1e-05, elementwise_affine=True)
        (norm2): LayerNorm((6,), eps=1e-05, elementwise_affine=True)
        (dropout1): Dropout(p=0.1, inplace=False)
        (dropout2): Dropout(p=0.1, inplace=False)
      )
      (2): TransformerEncoderLayer(
        (self_attn): MultiheadAttention(
          (out_proj): Linear(in_features=6, out_features=6, bias=True)
        )
        (linear1): Linear(in_features=6, out_features=2048, bias=True)
        (dropout): Dropout(p=0.1, inplace=False)
        (linear2): Linear(in_features=2048, out_features=6, bias=True)
        (norm1): LayerNorm((6,), eps=1e-05, elementwise_affine=True)
        (norm2): LayerNorm((6,), eps=1e-05, elementwise_affine=True)
        (dropout1): Dropout(p=0.1, inplace=False)
        (dropout2): Dropout(p=0.1, inplace=False)
      )
      (3): TransformerEncoderLayer(
        (self_attn): MultiheadAttention(
          (out_proj): Linear(in_features=6, out_features=6, bias=True)
        )
        (linear1): Linear(in_features=6, out_features=2048, bias=True)
        (dropout): Dropout(p=0.1, inplace=False)
        (linear2): Linear(in_features=2048, out_features=6, bias=True)
        (norm1): LayerNorm((6,), eps=1e-05, elementwise_affine=True)
        (norm2): LayerNorm((6,), eps=1e-05, elementwise_affine=True)
        (dropout1): Dropout(p=0.1, inplace=False)
        (dropout2): Dropout(p=0.1, inplace=False)
      )
    )
  )
  (1): TransformerEncoder(
    (layers): ModuleList(
      (0): TransformerGlobalEncoderLayer(
        (self_attn): MultiheadAttention(
          (out_proj): Linear(in_features=6, out_features=6, bias=True)
        )
        (linear1): Linear(in_features=6, out_features=6, bias=True)
        (dropout): Dropout(p=0.1, inplace=False)
        (linear2): Linear(in_features=6, out_features=6, bias=True)
        (norm1): LayerNorm((6,), eps=1e-05, elementwise_affine=True)
        (norm2): LayerNorm((6,), eps=1e-05, elementwise_affine=True)
        (dropout1): Dropout(p=0.1, inplace=False)
        (dropout2): Dropout(p=0.1, inplace=False)
      )
      (1): TransformerGlobalEncoderLayer(
        (self_attn): MultiheadAttention(
          (out_proj): Linear(in_features=6, out_features=6, bias=True)
        )
        (linear1): Linear(in_features=6, out_features=6, bias=True)
        (dropout): Dropout(p=0.1, inplace=False)
        (linear2): Linear(in_features=6, out_features=6, bias=True)
        (norm1): LayerNorm((6,), eps=1e-05, elementwise_affine=True)
        (norm2): LayerNorm((6,), eps=1e-05, elementwise_affine=True)
        (dropout1): Dropout(p=0.1, inplace=False)
        (dropout2): Dropout(p=0.1, inplace=False)
      )
    )
  )
)
INFO:root:Initializing random embeddings
INFO:root:Using cuda:0
INFO:root:Beginning training for 2 epochs, batch size 2
DEBUG:root:dob emb size for input: torch.Size([3, 2, 4, 6])
WARNING:root:Implement use of query emb!
INFO:root:seq len: 4, batch: 2, docs: 3, h: 6
…
